…
│ (MaxPooling2D)      │ 96)               │            │               
├─────────────────────┼───────────────────┼────────────┼───────────────
│ conv2d_5 (Conv2D)   │ (None, 12, 12,    │     83,040 │ max_pooling2d_
│                     │ 96)               │            │               
├─────────────────────┼───────────────────┼────────────┼───────────────
│ conv2d_6 (Conv2D)   │ (None, 12, 12,    │    166,080 │ conv2d_5[0][0]
│                     │ 192)              │            │               
├─────────────────────┼───────────────────┼────────────┼───────────────
│ max_pooling2d_2     │ (None, 6, 6, 192) │          0 │ conv2d_6[0][0]
│ (MaxPooling2D)      │                   │            │               
├─────────────────────┼───────────────────┼────────────┼───────────────
│ conv2d_7 (Conv2D)   │ (None, 6, 6, 192) │    331,968 │ max_pooling2d_
├─────────────────────┼───────────────────┼────────────┼───────────────
│ conv2d_8 (Conv2D)   │ (None, 6, 6, 384) │    663,936 │ conv2d_7[0][0]
├─────────────────────┼───────────────────┼────────────┼───────────────
│ max_pooling2d_3     │ (None, 3, 3, 384) │          0 │ conv2d_8[0][0]
│ (MaxPooling2D)      │                   │            │               
├─────────────────────┼───────────────────┼────────────┼───────────────
│ conv2d_9 (Conv2D)   │ (None, 3, 3, 384) │  1,327,488 │ max_pooling2d_
├─────────────────────┼───────────────────┼────────────┼───────────────
│ conv2d_10 (Conv2D)  │ (None, 3, 3, 768) │  2,654,976 │ conv2d_9[0][0]
├─────────────────────┼───────────────────┼────────────┼───────────────
│ max_pooling2d_4     │ (None, 1, 1, 768) │          0 │ conv2d_10[0][0
│ (MaxPooling2D)      │                   │            │               
├─────────────────────┼───────────────────┼────────────┼───────────────
│ max (Max)           │ (None, 1, 768)    │          0 │ max_pooling2d_
├─────────────────────┼───────────────────┼────────────┼───────────────
│ max_1 (Max)         │ (None, 768)       │          0 │ max[0][0]     
├─────────────────────┼───────────────────┼────────────┼───────────────
│ input_layer_1       │ (None, 2)         │          0 │ -             
│ (InputLayer)        │                   │            │               
├─────────────────────┼───────────────────┼────────────┼───────────────
│ concatenate         │ (None, 770)       │          0 │ max_1[0][0],  
│ (Concatenate)       │                   │            │ input_layer_1[
├─────────────────────┼───────────────────┼────────────┼───────────────
│ dense (Dense)       │ (None, 256)       │    197,376 │ concatenate[0]
├─────────────────────┼───────────────────┼────────────┼───────────────
│ dense_1 (Dense)     │ (None, 256)       │     65,792 │ dense[0][0]   
├─────────────────────┼───────────────────┼────────────┼───────────────
│ dense_2 (Dense)     │ (None, 256)       │     65,792 │ dense_1[0][0] 
├─────────────────────┼───────────────────┼────────────┼───────────────
│ dense_3 (Dense)     │ (None, 7)         │      1,799 │ dense_2[0][0] 
└─────────────────────┴───────────────────┴────────────┴───────────────
 Total params: 5,636,391 (21.50 MB)
 Trainable params: 5,636,391 (21.50 MB)
 Non-trainable params: 0 (0.00 B)
model summary:  None
features shape:  (None, 768)
layer shape: (None, 770)
hidden_layer_size:  256
layer shape: (None, 256)
hidden_layer_size:  256
layer shape: (None, 256)
hidden_layer_size:  256
layer shape: (None, 256)
Model: "functional_1"
┏━━━━━━━━━━━━━━━━━━━━━┳━━━━━━━━━━━━━━━━━━━┳━━━━━━━━━━━━┳━━━━━━━━━━━━━━━
┃ Layer (type)        ┃ Output Shape      ┃    Param # ┃ Connected to  
┡━━━━━━━━━━━━━━━━━━━━━╇━━━━━━━━━━━━━━━━━━━╇━━━━━━━━━━━━╇━━━━━━━━━━━━━━━
│ input_layer_2       │ (None, 50, 50, 6) │          0 │ -             
│ (InputLayer)        │                   │            │               
├─────────────────────┼───────────────────┼────────────┼───────────────
│ conv2d_11 (Conv2D)  │ (None, 50, 50,    │        168 │ input_layer_2[
│                     │ 24)               │            │               
├─────────────────────┼───────────────────┼────────────┼───────────────
│ conv2d_12 (Conv2D)  │ (None, 50, 50,    │      5,208 │ conv2d_11[0][0
…
│ (MaxPooling2D)      │ 96)               │            │               
├─────────────────────┼───────────────────┼────────────┼───────────────
│ conv2d_16 (Conv2D)  │ (None, 12, 12,    │     83,040 │ max_pooling2d_
│                     │ 96)               │            │               
├─────────────────────┼───────────────────┼────────────┼───────────────
│ conv2d_17 (Conv2D)  │ (None, 12, 12,    │    166,080 │ conv2d_16[0][0
│                     │ 192)              │            │               
├─────────────────────┼───────────────────┼────────────┼───────────────
│ max_pooling2d_7     │ (None, 6, 6, 192) │          0 │ conv2d_17[0][0
│ (MaxPooling2D)      │                   │            │               
├─────────────────────┼───────────────────┼────────────┼───────────────
│ conv2d_18 (Conv2D)  │ (None, 6, 6, 192) │    331,968 │ max_pooling2d_
├─────────────────────┼───────────────────┼────────────┼───────────────
│ conv2d_19 (Conv2D)  │ (None, 6, 6, 384) │    663,936 │ conv2d_18[0][0
├─────────────────────┼───────────────────┼────────────┼───────────────
│ max_pooling2d_8     │ (None, 3, 3, 384) │          0 │ conv2d_19[0][0
│ (MaxPooling2D)      │                   │            │               
├─────────────────────┼───────────────────┼────────────┼───────────────
│ conv2d_20 (Conv2D)  │ (None, 3, 3, 384) │  1,327,488 │ max_pooling2d_
├─────────────────────┼───────────────────┼────────────┼───────────────
│ conv2d_21 (Conv2D)  │ (None, 3, 3, 768) │  2,654,976 │ conv2d_20[0][0
├─────────────────────┼───────────────────┼────────────┼───────────────
│ max_pooling2d_9     │ (None, 1, 1, 768) │          0 │ conv2d_21[0][0
│ (MaxPooling2D)      │                   │            │               
├─────────────────────┼───────────────────┼────────────┼───────────────
│ max_2 (Max)         │ (None, 1, 768)    │          0 │ max_pooling2d_
├─────────────────────┼───────────────────┼────────────┼───────────────
│ max_3 (Max)         │ (None, 768)       │          0 │ max_2[0][0]   
├─────────────────────┼───────────────────┼────────────┼───────────────
│ input_layer_3       │ (None, 2)         │          0 │ -             
│ (InputLayer)        │                   │            │               
├─────────────────────┼───────────────────┼────────────┼───────────────
│ concatenate_1       │ (None, 770)       │          0 │ max_3[0][0],  
│ (Concatenate)       │                   │            │ input_layer_3[
├─────────────────────┼───────────────────┼────────────┼───────────────
│ dense_4 (Dense)     │ (None, 256)       │    197,376 │ concatenate_1[
├─────────────────────┼───────────────────┼────────────┼───────────────
│ dense_5 (Dense)     │ (None, 256)       │     65,792 │ dense_4[0][0] 
├─────────────────────┼───────────────────┼────────────┼───────────────
│ dense_6 (Dense)     │ (None, 256)       │     65,792 │ dense_5[0][0] 
├─────────────────────┼───────────────────┼────────────┼───────────────
│ dense_7 (Dense)     │ (None, 1)         │        257 │ dense_6[0][0] 
└─────────────────────┴───────────────────┴────────────┴───────────────
 Total params: 5,634,849 (21.50 MB)
 Trainable params: 5,634,849 (21.50 MB)
 Non-trainable params: 0 (0.00 B)
model summary:  None
Agent path:  logs/20260610_214005_baseline//models//actor_model.keras
Critic path:  logs/20260610_214005_baseline//models//critic_model
Logging to: 
/Users/andrewsoncha/RL_Drone/uavSim/logs/20260610_214005_baseline/
…
